…
2/2 - 2s - loss: 185848.0000 - mean_squared_error: 952.9384 - mean_absolute_percentage_error: 597887744.0000 - root_mean_squared_error: 30.8697
Epoch 40/40
2/2 - 2s - loss: 155457.3125 - mean_squared_error: 748.1139 - mean_absolute_percentage_error: 539599168.0000 - root_mean_squared_error: 27.3517
output/v3_lstm_ll_al_speed_avg_1_adam_epoch=40
Do ->> dnn mse speed 0
---->  dnn_mse_0
Model: "sequential"
_________________________________________________________________
Layer (type)                 Output Shape              Param #   
=================================================================
dense (Dense)                (None, 16)                496       
_________________________________________________________________
batch_normalization (BatchNo (None, 16)                64        
_________________________________________________________________
dense_1 (Dense)              (None, 64)                1088      
_________________________________________________________________
batch_normalization_1 (Batch (None, 64)                256       
_________________________________________________________________
dense_2 (Dense)              (None, 64)                4160      
_________________________________________________________________
batch_normalization_2 (Batch (None, 64)                256       
_________________________________________________________________
dense_3 (Dense)              (None, 256)               16640     
_________________________________________________________________
batch_normalization_3 (Batch (None, 256)               1024      
_________________________________________________________________
dense_4 (Dense)              (None, 8)                 2056      
_________________________________________________________________
dense_5 (Dense)              (None, 1)                 9         
=================================================================
Total params: 26,049
Trainable params: 25,249
Non-trainable params: 800
_________________________________________________________________
Data: (12244, 30) (12244,) (0,) (0,) (7104, 30) (7104,)
Do ->> dnn mse speed 1
---->  dnn_mse_1
Model: "sequential_2"
_________________________________________________________________
Layer (type)                 Output Shape              Param #   
=================================================================
dense_12 (Dense)             (None, 550, 16)           496       
_________________________________________________________________
batch_normalization_8 (Batch (None, 550, 16)           64        
_________________________________________________________________
dense_13 (Dense)             (None, 550, 64)           1088      
_________________________________________________________________
batch_normalization_9 (Batch (None, 550, 64)           256       
_________________________________________________________________
dense_14 (Dense)             (None, 550, 64)           4160      
_________________________________________________________________
batch_normalization_10 (Batc (None, 550, 64)           256       
_________________________________________________________________
flatten (Flatten)            (None, 35200)             0         
_________________________________________________________________
dense_15 (Dense)             (None, 256)               9011456   
_________________________________________________________________
batch_normalization_11 (Batc (None, 256)               1024      
_________________________________________________________________
dense_16 (Dense)             (None, 8)                 2056      
_________________________________________________________________
dense_17 (Dense)             (None, 1)                 9         
=================================================================
Total params: 9,020,865
Trainable params: 9,020,065
Non-trainable params: 800
_________________________________________________________________
Data: (300, 550, 30) (300, 1) (0,) (0,) (182, 550, 30) (182, 1)
Epoch 1/40
2/2 - 2s - loss: 602.5531 - mean_squared_error: 601.9772 - mean_absolute_percentage_error: 1586860.8750 - root_mean_squared_error: 24.5352
…
2/2 - 0s - loss: 896.0601 - mean_squared_error: 896.0422 - mean_absolute_percentage_error: 787694144.0000 - root_mean_squared_error: 29.9340
Epoch 40/40
2/2 - 0s - loss: 1052.8052 - mean_squared_error: 1052.7881 - mean_absolute_percentage_error: 771400832.0000 - root_mean_squared_error: 32.4467
output/v3_dnn_mse_al_speed_avg_1_adam_epoch=40
Do ->> dnn ll speed 0
---->  dnn_ll_0
Model: "sequential_1"
_________________________________________________________________
Layer (type)                 Output Shape              Param #   
=================================================================
dense_6 (Dense)              (None, 16)                496       
_________________________________________________________________
batch_normalization_4 (Batch (None, 16)                64        
_________________________________________________________________
dense_7 (Dense)              (None, 64)                1088      
_________________________________________________________________
batch_normalization_5 (Batch (None, 64)                256       
_________________________________________________________________
dense_8 (Dense)              (None, 64)                4160      
_________________________________________________________________
batch_normalization_6 (Batch (None, 64)                256       
_________________________________________________________________
dense_9 (Dense)              (None, 256)               16640     
_________________________________________________________________
batch_normalization_7 (Batch (None, 256)               1024      
_________________________________________________________________
dense_10 (Dense)             (None, 8)                 2056      
_________________________________________________________________
dense_11 (Dense)             (None, 2)                 18        
=================================================================
Total params: 26,058
Trainable params: 25,258
Non-trainable params: 800
_________________________________________________________________
Data: (12244, 30) (12244,) (0,) (0,) (7104, 30) (7104,)
Do ->> dnn ll speed 1
---->  dnn_ll_1
Model: "sequential_3"
_________________________________________________________________
Layer (type)                 Output Shape              Param #   
=================================================================
dense_18 (Dense)             (None, 550, 16)           496       
_________________________________________________________________
batch_normalization_12 (Batc (None, 550, 16)           64        
_________________________________________________________________
dense_19 (Dense)             (None, 550, 64)           1088      
_________________________________________________________________
batch_normalization_13 (Batc (None, 550, 64)           256       
_________________________________________________________________
dense_20 (Dense)             (None, 550, 64)           4160      
_________________________________________________________________
batch_normalization_14 (Batc (None, 550, 64)           256       
_________________________________________________________________
flatten_1 (Flatten)          (None, 35200)             0         
_________________________________________________________________
dense_21 (Dense)             (None, 256)               9011456   
_________________________________________________________________
batch_normalization_15 (Batc (None, 256)               1024      
_________________________________________________________________
dense_22 (Dense)             (None, 8)                 2056      
_________________________________________________________________
dense_23 (Dense)             (None, 2)                 18        
=================================================================
Total params: 9,020,874
Trainable params: 9,020,074
Non-trainable params: 800
_________________________________________________________________
Data: (300, 550, 30) (300, 1) (0,) (0,) (182, 550, 30) (182, 1)
Epoch 1/40
2/2 - 2s - loss: 17860270.0000 - mean_squared_error: 1088.6196 - mean_absolute_percentage_error: 1276389.6250 - root_mean_squared_error: 32.9942
…
